diabetes_risk_model.onnx (onnx, 15827 bytes, 5 tensors)

network.0.weight f4 [64, 24]
000000 da 93 2b 3e af 06 6a 3d be 1c 99 3d 92 5e f5 3d
       0.1675562 0.05713528 0.07476185 0.119809285
000010 1b 04 7d 3d 15 e5 1f be 12 26 d5 bd 61 fd ba bd
       0.061771493 -0.15614732 -0.10407652 -0.091303594
000020 04 64 05 3e 88 d1 00 bc 8d 8f b0 bd 16 15 83 3d
       0.13026434 -0.007862456 -0.0862113 0.06400506
000030 4b 8a 06 bb b6 70 01 bd 56 0f 11 be 16 fd 13 be
       -0.0020529206 -0.03160163 -0.14166006 -0.14452013
000040 86 83 1a be fd 79 9b bd fb b3 a5 3d ed b3 ff 3d
       -0.15089235 -0.07591627 0.08090969 0.1248549
000050 12 ea 19 bb 0f ef b0 bc 09 9c 16 bd 74 43 59 3e
       -0.0023485464 -0.021598367 -0.0367699 0.21217138
000060 3c 7f 6f be 9f 53 9b 3d f9 18 8f 3c 4c 11 80 be
       -0.2338838 0.07584309 0.017467963 -0.25013196
000070 f3 04 1e 3d 3b 47 98 bd bb 43 03 bd 27 fc 55 bd
       0.03857894 -0.07435461 -0.032047015 -0.052242424
000080 73 8f d9 3d 0c 7e 81 3d 12 e3 c1 3d 7f b1 bb bd
       0.10623064 0.0632287 0.09467138 -0.09164714
000090 73 7b 4d bd bc 6a 23 be 42 8f 12 be d5 ab d0 3c
       -0.05016656 -0.15958685 -0.14312461 0.02547256
0000a0 c7 f9 c2 bd 19 3c ad bc ad 4e c9 3d 7b 1a 17 bd
       -0.095202975 -0.02114682 0.09829459 -0.036890488
0000b0 61 9a 1f 3e 6b 60 25 3e a7 b9 09 3e b7 7d d0 bd
       0.15586235 0.16150062 0.13449727 -0.10180228
0000c0 0a d9 02 3c 9d cf cf bc 63 b5 41 3e 46 9b 47 3e
       0.007986316 -0.025367552 0.1891685 0.19492826
0000d0 b9 58 2b 3d d6 60 1f 3e 34 52 58 be c6 cb 1a bc
       0.04183266 0.15564284 -0.21125108 -0.009447997
0000e0 d7 aa b1 3c 18 f6 51 3d 9c a2 e9 3d 52 87 c7 3c
       0.021687908 0.051260084 0.114079684 0.024356518
0000f0 31 c4 5c 3e b5 98 b2 3d 64 7d ee 3c 46 84 06 be
       0.21559216 0.08720533 0.029112525 -0.13136396
000100 1f 24 2e be 6d 7e 29 3d e4 e1 ab bd a1 3b 65 bd
       -0.17005967 0.041380335 -0.083926946 -0.05596507
000110 03 dd 99 bd 22 b6 d5 bd 23 29 39 be 8f 48 34 be
       -0.07512858 -0.1043513 -0.18082099 -0.17605804
000120 74 5b e5 3d 37 17 e4 bd cb 0b 0f be 93 c1 2b 3d
       0.11199084 -0.111372404 -0.13969342 0.041932654
000130 76 af 58 be 23 a1 1d bc b8 36 3e 3e 5f 32 1d bc
       -0.21160683 -0.0096209375 0.18575561 -0.009594529
000140 a7 be 93 3d 6a 94 e1 3d e3 68 c5 bd b3 43 54 be
       0.072140984 0.11014636 -0.09639146 -0.2072895
000150 6b c8 53 3e 61 70 b7 3d 94 25 1c 3e 9c 73 a1 3d
       0.20681922 0.089569815 0.1524871 0.07883379
000160 0c 37 32 3e 47 1f 5a 3e 3b 15 0d 3e f4 4c 76 3c
       0.17403811 0.21300994 0.1377763 0.0150329955
000170 68 3e a7 bd f2 d0 49 be a0 0f fa bd 76 b3 47 3e
       -0.081662 -0.19708613 -0.122100115 0.19502053
000180 e3 cd 9b bc aa 1f 3e 3e ee 3c 03 3e 44 5e ad 3d
       -0.019019073 0.18566766 0.12816212 0.08465245
000190 f4 4e d3 3d 52 e8 e3 3d 64 3a 40 3d db 40 b4 bc
       0.103177935 0.11128296 0.046930686 -0.022003582
0001a0 67 da fb 3d e8 cd 8c 3c 75 94 c7 bd 42 f1 24 3e
       0.12297516 0.017188028 -0.09745113 0.16107658
0001b0 8b 27 18 be 07 07 a3 3d d7 7a 4f bd e4 42 15 be
       -0.14858834 0.07960325 -0.05065426 -0.14576298
0001c0 54 82 02 bd d8 1d 28 be ea 00 40 3a 64 40 3a 3d
       -0.03186257 -0.16417634 0.0007324355 0.045471564
0001d0 37 b3 1c be cb 4d 32 be 4b 01 eb bd 9f 98 0c 3d
       -0.1530274 -0.17412488 -0.11474856 0.03432524
0001e0 ab 4d 7e 3d 08 86 10 be 72 91 02 3c c1 e0 d7 3d
       0.06208579 -0.14113629 0.007969247 0.10540915
0001f0 3e 49 11 bb 70 0b 11 be 5f e1 17 be b1 e7 17 be
       -0.00221689 -0.1416452 -0.14832066 -0.14834477
000200 6e 91 f6 bd 58 e3 5d bd 61 4d 68 bd 5f fa ea 3b
       -0.12039457 -0.05417189 -0.05671442 0.00717096
000210 5b de 5e be 7c df c9 3d c7 e9 14 3d bb de a7 bc
       -0.2176451 0.098570794 0.03635576 -0.020491948
000220 de 90 40 be 25 07 4e be 74 c8 ae 3b 7d 50 52 bd
       -0.18805262 -0.20119913 0.0053339545 -0.05134629
000230 85 0d ca 3c 42 e9 ab 3d f3 16 51 3d 59 a7 cd bd
       0.02466465 0.083941 0.051047277 -0.10041685
000240 c7 1e 6c bd e9 f4 36 be 57 fa 68 3e 2d 57 0f 3e
       -0.05764654 -0.17866863 0.22751747 0.13998099
000250 11 ef 25 be 39 cb 17 be 1c 1f 2d 3e cd d1 6c 3e
       -0.16204478 -0.14823617 0.16906399 0.23126908
000260 3f cc 16 3e 1d 7e 26 3a 00 7a 14 3e b8 a3 02 3e
       0.14726351 0.000635119 0.14499664 0.12757766
000270 b5 f4 44 be ac bf b8 3c 1a 97 c0 3d c0 e9 1e 3e
       -0.19233973 0.022552334 0.0940382 0.15518856
000280 99 7b 55 3e 45 42 e4 bc 64 ee 4a be 1e 67 81 3d
       0.2084793 -0.027863631 -0.19817501 0.06318496
000290 2e 5b f3 3d 4e 65 2c 3e cd a6 00 3e b7 5d 9a 3d
       0.118826255 0.1683552 0.1256363 0.07537406
0002a0 60 38 19 3d 56 bc 62 bc 67 2b 01 3d ab 01 35 3b
       0.03740728 -0.013838848 0.031535532 0.0027619402
0002b0 ec 4e 04 bd e6 81 84 bd 2e f2 b4 3b e4 c4 77 3c
       -0.03230183 -0.06470089 0.005522034 0.015122626
0002c0 5c 47 75 be 48 18 c4 bd 7e 30 83 bd 11 d6 91 3d
       -0.23953003 -0.09574944 -0.064057335 0.07120908
0002d0 87 72 81 3e 17 89 bf bd 50 87 46 be 1c eb 05 3e
       0.2528269 -0.0935232 -0.19387555 0.13077968
0002e0 b4 c1 0b be 01 ed 39 3e 66 5a cd bc ed 18 00 be
       -0.1364811 0.18156816 -0.02506752 -0.12509508
0002f0 9f 11 10 be 35 7d 66 bd 5f d1 00 3e b2 93 84 bd
       -0.14069222 -0.05627175 0.12579869 -0.06473483
000300 e8 51 9d 3d 34 2d 92 bd 16 e9 f5 bd 2e 67 6c be
       0.07681638 -0.07137528 -0.12007348 -0.23086235
000310 98 a3 3d be 8d c7 c9 3d 7e 19 53 3e 64 e3 2e 3e
       -0.18519437 0.098525144 0.20615193 0.1707893
000320 86 5b d3 bc 54 f6 cf bd 80 9c 43 3e 21 fe 0e 3a
       -0.025800478 -0.10154405 0.19102669 0.0005454738
000330 c0 f4 25 be 30 53 6c 3c d3 ac 1b 3e 6a 6f ff 3d
       -0.16206646 0.01442413 0.15202646 0.124724224
000340 47 44 47 bd da 92 f1 bd a3 48 2c 3d 92 19 18 3e
       -0.0486491 -0.11795588 0.04206146 0.14853504
000350 61 6e fa 3c 66 f7 1c be a7 a3 29 be 12 6a ca 3d
       0.03057021 -0.1532875 -0.16566335 0.098835126
000360 99 0c 3d 3e 93 cb f8 bb 5c 2c 13 3e 93 be 89 bd
       0.18461837 -0.0075926273 0.1437239 -0.06725802
000370 52 35 83 3e 41 36 33 3e 15 19 43 3e 18 6e 6e 3e
       0.25626618 0.17501165 0.19052537 0.23284185
000380 84 ed c6 bc 85 08 30 bd e3 84 8e bd c5 1a 45 3e
       -0.024283178 -0.042976875 -0.0695894 0.19248493
000390 c1 67 a9 3d eb 37 62 be a1 5c 82 be b5 e2 3b be
       0.082717426 -0.22091644 -0.25461295 -0.183482
0003a0 78 51 7e bd 3a be 93 3d bc 3f 2d be 78 66 f1 bc
       -0.062089413 0.07214017 -0.16918844 -0.029467806
0003b0 2e 16 7d 3c bb 76 31 be 34 0c 03 be d3 51 35 3e
       0.015447183 -0.17330448 -0.12797624 0.17706995
0003c0 a8 c9 6f be d5 05 0c be ae af 6b 3d 91 92 b9 bc
       -0.2341677 -0.136741 0.057540588 -0.022652896
0003d0 05 00 6a be 67 ad 17 3e 77 7e 4e 3e 33 6b 96 bd
       -0.2285157 0.14812241 0.2016543 -0.073446654
0003e0 e6 50 2a be 56 f0 62 bd e3 2d ba bc b4 fa 93 3d
       -0.16632423 -0.055404983 -0.022726959 0.07225552
0003f0 82 3c 5e 3d 54 91 6a bd c4 5c a0 3d 87 6a ad 3d
       0.054256923 -0.057267502 0.07830194 0.08467584

network.0.bias f4 [64]
000000 fe 63 3c be 17 d8 f8 bd b9 39 a9 bd ad ac 0f 3e
       -0.18397519 -0.12150591 -0.08262963 0.14030714
000010 84 7c a3 bd f8 46 7a 3d c8 05 14 bd 1a 03 1e 3e
       -0.07982734 0.061102837 -0.036138326 0.1543087
000020 6d b9 6c 3d 22 62 14 bd 35 dd 10 bc 56 46 25 be
       0.057794023 -0.0362264 -0.008841802 -0.16140112
000030 6a ae aa 3d c4 2e 4b bd c8 4e c0 bd 13 9a 11 be
       0.08334048 -0.049605146 -0.09390026 -0.14218931
000040 b9 50 67 3e 2a 7d 8c 3b e8 1d 6e bd 88 68 c7 bb
       0.22589387 0.0042873817 -0.05813399 -0.006085459
000050 c4 da 7c 3e 07 f6 de bd 69 ef 3c 3e 5d 1b 8c bd
       0.24692827 -0.1088677 0.18450703 -0.06841157
000060 da c9 06 bd 8c 49 d6 3d 49 9e 5b bd 68 52 76 be
       -0.032907344 0.10463247 -0.05361775 -0.24054873
000070 71 54 c7 bd 43 a9 4c 3e fc d1 29 3e 0f f3 8e bc
       -0.09732903 0.19986443 0.16584009 -0.017449884
000080 18 fb ac 39 8e bd 94 bd 52 79 ef bd b5 06 84 3e
       0.00032993476 -0.07262717 -0.11693062 0.25786367
000090 4f 00 7c 3c 63 04 00 bd f8 34 75 3d 78 fc f1 38
       0.015380933 -0.031254184 0.059864968 0.000115388015
0000a0 88 a6 a6 3d c8 79 53 bc 7c 39 5c 3e 4a fb cc 3c
       0.08137232 -0.012907453 0.21506304 0.025022168
0000b0 5c 1e 8b 3d 92 15 72 3e ba 97 76 3d 67 ec 72 3e
       0.067929 0.23641041 0.06020329 0.23722993
0000c0 9d 60 81 bc 7a 56 f8 bd de e3 22 bc c1 51 fc bd
       -0.01579314 -0.12125869 -0.009942023 -0.12320281
0000d0 fa c6 da 3d 8d 48 05 3d d1 fa 29 3e 82 fb 60 3e
       0.10682483 0.032539893 0.16599585 0.21970943
0000e0 7d f7 25 bd c0 83 14 3e 71 65 a5 bd 5b 3e 9d 3d
       -0.040519226 0.14503384 -0.08075989 0.07677909
0000f0 63 16 63 3e 4d ed 40 3e 5f 54 26 bc 6b a8 c4 3d
       0.22176509 0.18840523 -0.010151952 0.09602436

network.2.weight f4 [32, 64]
000000 98 71 80 bd d3 04 ca bd c8 67 71 bd 4e 63 0e bd
       -0.06271666 -0.098642014 -0.058936864 -0.034762673
000010 78 aa 06 bd 9c a2 11 be 1a 25 f4 bd 08 6e 1d 3d
       -0.032877415 -0.14222187 -0.11921139 0.038435012
000020 d9 8c 9e bd 03 83 09 3e f4 96 42 bd fd de e8 bc
       -0.07741708 0.13428883 -0.04750724 -0.028426642
000030 3e b6 1e 3e 97 2c df 3d 78 6b 20 bd f5 d6 67 3d
       0.15499207 0.10897177 -0.03916499 0.056601483
000040 1b 34 d5 bd 07 07 1b be f0 f2 39 3d a7 46 b6 3c
       -0.10410329 -0.151394 0.0453977 0.022250487
000050 6e 61 f2 3d 7d 5d 35 bc 08 d1 44 bd ab cc ba 3d
       0.118349895 -0.011069653 -0.04805091 0.091210686
000060 a4 de fd 3d d4 0b c2 3d bf 84 14 3e cf 37 b6 bc
       0.12395981 0.09474912 0.14503764 -0.022243408
000070 d0 68 c7 3d 5f e7 21 3d 41 f9 02 be 12 40 bb bd
       0.09736788 0.039527293 -0.12790395 -0.0914308
000080 4e 98 85 bc 25 ae 4e bd 48 d0 be 3d 76 f3 89 3d
       -0.016307976 -0.050459046 0.0931707 0.067358896
000090 27 4d 70 bd 61 e7 8a bd df 20 ce bc 3c 80 b8 bb
       -0.05866733 -0.06782413 -0.025162159 -0.005630521
0000a0 ca 51 13 bc 44 ed 1b 3e 56 fb 07 bc 37 98 31 3e
       -0.008991668 0.15227228 -0.008299669 0.17343222
0000b0 f7 41 1c 3e ac 5c 76 3d d4 92 a0 3d 98 4c b8 bc
       0.15259539 0.060146973 0.07840505 -0.02249746
0000c0 b4 20 e7 3c b1 e4 f0 bd 8d 0e 16 3e 95 91 6e bd
       0.028213836 -0.117623694 0.14653988 -0.058244307
0000d0 79 44 06 3e 72 d4 0a 3e 70 78 fe 3d 49 54 22 3e
       0.13112058 0.13557604 0.124253154 0.15852465
0000e0 14 69 60 bd f5 bb 24 3e 03 36 57 3d 7d 12 82 3c
       -0.05478771 0.16087325 0.052541744 0.015877957
0000f0 60 70 8e bd 36 b4 36 bd ee d0 ae 3c d6 c5 6e bd
       -0.069550276 -0.044605456 0.02133986 -0.05829414
000100 cb 9a d2 bc e2 ae 72 bd 97 40 5f 3d 5e b4 ae 3c
       -0.025708577 -0.059248812 0.054504957 0.02132624
000110 34 51 05 3e 57 7b 47 bd d3 72 ad 3d a9 fa 18 be
       0.13019258 -0.04870161 0.084691666 -0.1493937
000120 86 0c 14 3d ec ae 9a bd b4 8a 58 3d f3 dd cd 3d
       0.036144756 -0.07552895 0.052866653 0.10052099
000130 0f ba ae 3d a0 1c d7 bc b1 af a6 bd d7 c6 95 3c
       0.085315816 -0.026258767 -0.08138979 0.01828329
000140 b6 bd b7 bc 0e 2d 24 3e 73 a4 b3 3d a5 a2 d4 3c
       -0.022429328 0.16032812 0.087716006 0.025956461
000150 7f 0f 82 3c 13 f3 8a bd f4 82 91 3d 95 8b 61 bd
       0.01587653 -0.06784644 0.071050555 -0.055064756
000160 91 14 24 bd dc 82 ff bc 44 8f 93 3d 1b 78 ce bd
       -0.040058676 -0.031190328 0.0720506 -0.10081502
000170 20 b7 69 ba ce 88 5f bd cc 45 5c bc 6c c6 a9 3d
       -0.00089155324 -0.054573826 -0.013444375 0.08289799
000180 c8 01 21 bc 86 fb 1b 3e e5 03 42 3d fa 19 e4 3d
       -0.009827085 0.15232667 0.047366995 0.11137767
000190 94 ea 74 bd c5 7a c7 3c 8f 45 7d 3d f0 cf 16 3e
       -0.059794024 0.024350533 0.061833914 0.1472776
0001a0 57 d0 4a 3b 74 cf 1e 3d ce b3 dc 3d 19 43 1e 3e
       0.0030946934 0.03877206 0.107764825 0.15455283
0001b0 08 1d 1d be e6 0a ef 3b ad bd cc 3d 72 88 28 bb
       -0.15343106 0.0072950004 0.09997115 -0.0025716093
0001c0 33 9d 94 3d 82 9f b8 3d eb 93 98 3d 2d df 74 3d
       0.07256546 0.09014799 0.07450088 0.05978315
0001d0 e1 c1 2e bd 28 54 08 be 39 59 16 be 44 56 a3 bd
       -0.042665366 -0.13313353 -0.14682473 -0.07975438
0001e0 12 31 86 3d 32 e8 b0 3c 67 d9 d9 bd 98 b1 68 3d
       0.06552328 0.021595094 -0.10637169 0.05680999
0001f0 6f 87 22 3e e0 b7 0d 3e 78 0a 38 3c e8 55 0b 3e
       0.15871976 0.13839674 0.011232965 0.1360699
000200 47 22 0f 3c d7 fa 2a 3e 4f 1d 8f bd 92 71 bb 3c
       0.0087362 0.1669725 -0.06988012 0.022881303
000210 31 bc 28 bc 16 2a 1c 3e e8 6d a1 bb ed 5f f9 3c
       -0.010298775 0.1525043 -0.004926432 0.030441249
000220 6f 0e 05 be 09 dd 1f be 47 05 fd bd fa 48 5b bd
       -0.12993787 -0.15611662 -0.12354522 -0.053536393
000230 5f c4 fb bd 15 a2 d0 3c 86 2c 0f be 14 ce 62 bc
       -0.12293314 0.025467912 -0.13981828 -0.013843078
000240 d8 df 84 3d ac 4c 50 3d cf 21 de bd e9 18 72 3d
       0.06488007 0.05085437 -0.10846292 0.059105787
000250 11 72 93 3c 85 32 42 3d 68 ae 10 3d 5e 3b db 3d
       0.017998727 0.04741146 0.035322577 0.10704683
000260 75 18 85 3c 55 56 de bd 1c 97 85 3d d5 48 1b bd
       0.016247014 -0.1085631 0.065229625 -0.037911255
000270 67 01 9e bc f3 5a 8a bd 4c d5 32 3c 08 7d 3b bd
       -0.019287778 -0.067556284 0.010915112 -0.045773536
000280 d7 d8 9b bd a6 81 cc bc 5e 15 81 3d 18 8a 30 bd
       -0.07609718 -0.024964165 0.063029036 -0.043100446
000290 76 66 0c 3e 95 5c 89 bc 66 dd db 3d 1d d5 f2 3b
       0.13710961 -0.01676778 0.10735588 0.007410659
0002a0 54 50 ec 3c 60 01 87 3d a6 7c a9 bc ac 1d 5f bd
       0.028846897 0.06592059 -0.02068932 -0.054471657
0002b0 1d 84 24 3d f0 21 24 bc 2a 92 aa 3d 7b fc 38 bd
       0.040165056 -0.010017857 0.0832866 -0.04516266
0002c0 7e 74 e5 3c ef fd b2 3c f8 de 9b bc 82 60 62 3d
       0.02800965 0.0218496 -0.019027218 0.05526782
0002d0 1d 56 d7 3d 4a 72 e0 bd 6a 73 7c 3d 02 77 13 bc
       0.10514472 -0.10959299 0.061633505 -0.009000542
0002e0 14 5a b0 3d cf 74 57 3d 84 fa 6d bd bd 0f 8d bd
       0.08610931 0.05260163 -0.05810024 -0.068877675
0002f0 e6 e7 0e 3e 3f e4 81 bd 3b 5b 9b 3d 01 33 ea 3c
       0.1395565 -0.063423626 0.0758576 0.028588774
000300 e9 23 90 bd 6d 48 e1 3d d1 98 07 be 53 7c 59 3d
       -0.07038099 0.11000142 -0.13241889 0.05309708
000310 fc a8 e6 3d 23 85 0b bd 00 c3 6b bd b4 35 22 be
       0.112627 -0.034062516 -0.057559013 -0.15840799
000320 e3 fe b6 bd 3f f7 61 3d 85 bc 9c bc 7c 8f fd bc
       -0.089353345 0.055167433 -0.019132862 -0.030952208
000330 18 a5 c9 3d 1b 92 df 3d a5 9f 84 bd 48 e1 ce bd
       0.09845942 0.10916539 -0.06475762 -0.10101563
000340 4e 1f c3 3c f7 f5 82 bd fd 29 e6 3d 73 8f 61 bd
       0.023818638 -0.0639457 0.112384774 -0.055068444
000350 b1 a7 3b bd a5 ab dc 3d 60 18 bc bb ba ac bc 3d
       -0.04581422 0.10774926 -0.0057402104 0.092126325
000360 47 3a 14 3d 05 9d 8d 3d f2 96 95 bd 6a f8 10 bc
       0.03618839 0.06914715 -0.07304181 -0.008848289
000370 31 52 6e 3d f1 60 12 3e 4f 15 20 3e 45 3e 10 3e
       0.058183853 0.14294793 0.15633129 0.14086254
000380 f2 54 80 3c e5 da 27 3d b3 20 27 3e 8e 92 d3 3c
       0.015665505 0.04098024 0.16321068 0.025826719
000390 5d 2f 4e 3d 56 8a 56 bd 7d 4c 9d 3d 8a 3a 87 bd
       0.050338138 -0.05237802 0.076806046 -0.06602962
0003a0 e3 84 ac 3d 56 ed 8b 3d 03 95 2e 3e c7 cc 94 3d
       0.08423784 0.068323776 0.17049031 0.07265621
0003b0 e4 81 21 3d 9f 8d 1b be 91 f1 84 bd 04 0a 53 bd
       0.039430514 -0.15190743 -0.06491388 -0.051523224
0003c0 66 64 d9 3d 8d 8b 29 3d 54 6b 13 3e ab 1e b0 bc
       0.106148526 0.04139285 0.14396411 -0.021498999
0003d0 bf 53 0a 3e 2a b0 9c bd 3e 5d 44 bd be a9 64 bd
       0.13508509 -0.07650788 -0.047940485 -0.05582594
0003e0 0f 2a e2 3d 2a 33 fb 3d e0 0f 2b 3c ad 4d 8c bd
       0.11043178 0.12265618 0.010440797 -0.06850753
0003f0 89 9d 97 bd 46 3d 83 3d 07 24 3a 3c 1c db e0 3d
       -0.07403094 0.06408171 0.011361129 0.10979292

network.2.bias f4 [32]
000000 0e 51 02 bd 0a a6 d1 bc f4 56 20 3c 8a 0e 03 bc
       -0.03181558 -0.025591869 0.009786356 -0.007999072
000010 e5 a3 ec 3d b8 dd 97 bd 21 31 80 bc a2 60 b2 3d
       0.11554698 -0.07415336 -0.015648426 0.087098375
000020 b4 c2 24 bd 85 25 9e bd 50 a5 96 bd f8 e4 27 3d
       -0.040224746 -0.07722 -0.073557496 0.040989846
000030 ca 18 06 3b f3 04 4e bd c7 89 a4 bd 98 3b 5e 3d
       0.0020461553 -0.05029769 -0.080340914 0.05425605
000040 d8 e7 04 bd b6 d5 d9 3c 46 7c 92 3d 96 eb 06 3d
       -0.032447666 0.026591163 0.071526095 0.032939516
000050 fc e6 9f 3d 5c e6 e0 3c dd 4b 5a 3d ea 89 1b 3e
       0.07807729 0.027453594 0.053295005 0.15189329
000060 6e b3 46 3d c6 ae 75 3c 1e 75 d1 3c b3 5f 55 3b
       0.04851096 0.0149952825 0.025568541 0.0032558262
000070 95 b0 f6 3d 82 e6 25 3e eb ee b4 bd 48 84 9a 3c
       0.12045399 0.16201213 -0.088346325 0.018861905

network.4.weight f4 [1, 32]
000000 5a 14 58 3e 62 d4 28 be ef 28 83 bd bf d6 c8 bd
       0.21101514 -0.16487268 -0.06404292 -0.098065846
000010 87 99 13 3e e2 71 09 3e a5 28 32 3e 89 8b 68 bd
       0.14414035 0.13422349 0.17398317 -0.056773696
000020 db 5f a1 bd 8f da 29 be c7 9a 59 3d 4b e0 c3 bd
       -0.07879611 -0.1658728 0.053126123 -0.09564265
000030 6d 2e 31 be 69 c0 26 3e c8 60 53 3c 47 98 65 be
       -0.17302866 0.16284336 0.012901492 -0.2242137
000040 7b ce 2c 3c 97 84 14 be 9c 94 f7 3d e1 11 6f 3d
       0.010547276 -0.14503704 0.12088892 0.05836666
000050 ab 0f 47 3e 7d 1e e9 3d 01 b7 0a be b1 87 34 3e
       0.1943957 0.11382768 -0.13546373 0.17629887
000060 cc 65 28 be d7 03 08 be a2 44 5a 3e 8f c2 a7 bd
       -0.16445082 -0.13282715 0.21315244 -0.08191406
000070 5d f2 3f be 4e 14 30 be 55 82 b6 bd 08 1c a5 3d
       -0.18744798 -0.17195246 -0.089115776 0.08061987
